…
Tue 10 Sep 2024 21:32:29 INFO  [Evaluation]: eval_batch_size = [1024] eval_args: [{'split': {'LS': 'valid_and_test'}, 'order': 'TO', 'group_by': 'user', 'mode': {'valid': 'full', 'test': 'full'}}]
Tue 10 Sep 2024 21:32:29 INFO  Loading from saved/UniSRec-FHCKM-300.pth
Tue 10 Sep 2024 21:32:30 INFO  Transfer [FHCKM] -> [Allplan
The number of users: 470
Average actions of users: 1602.6460554371001
The number of items: 1674
Average actions of items: 449.2773460848775
The number of inters: 751641
The sparsity of the dataset: 4.466178601387938%
Remain Fields: ['user_id', 'item_id_list', 'item_id', 'item_length']]
Tue 10 Sep 2024 21:32:30 INFO  Fix encoder parameters.
Tue 10 Sep 2024 21:32:30 INFO  UniSRec(
  (item_embedding): Embedding(1674, 300, padding_idx=0)
  (position_embedding): Embedding(50, 300)
  (trm_encoder): TransformerEncoder(
    (layer): ModuleList(
      (0-1): 2 x TransformerLayer(
        (multi_head_attention): MultiHeadAttention(
          (query): Linear(in_features=300, out_features=300, bias=True)
          (key): Linear(in_features=300, out_features=300, bias=True)
          (value): Linear(in_features=300, out_features=300, bias=True)
          (softmax): Softmax(dim=-1)
          (attn_dropout): Dropout(p=0.5, inplace=False)
          (dense): Linear(in_features=300, out_features=300, bias=True)
          (LayerNorm): LayerNorm((300,), eps=1e-12, elementwise_affine=True)
          (out_dropout): Dropout(p=0.5, inplace=False)
        )
        (feed_forward): FeedForward(
          (dense_1): Linear(in_features=300, out_features=256, bias=True)
          (dense_2): Linear(in_features=256, out_features=300, bias=True)
          (LayerNorm): LayerNorm((300,), eps=1e-12, elementwise_affine=True)
          (dropout): Dropout(p=0.5, inplace=False)
        )
      )
    )
  )
  (LayerNorm): LayerNorm((300,), eps=1e-12, elementwise_affine=True)
  (dropout): Dropout(p=0.5, inplace=False)
  (loss_fct): CrossEntropyLoss()
  (plm_embedding): Embedding(1674, 768, padding_idx=0)
  (moe_adaptor): MoEAdaptorLayer(
    (experts): ModuleList(
      (0-7): 8 x PWLayer(
        (dropout): Dropout(p=0.2, inplace=False)
        (lin): Linear(in_features=768, out_features=300, bias=False)
      )
    )
  )
)
Trainable parameters: 2364432
Tue 10 Sep 2024 21:44:28 INFO  epoch 0 training [time: 712.44s, train loss: 2386.4627]
Tue 10 Sep 2024 21:44:28 INFO  epoch 0 evaluating [time: 0.17s, valid_score: 0.397100]
Tue 10 Sep 2024 21:44:28 INFO  valid result: 
hit@5 : 0.5501    hit@10 : 0.6866    ndcg@5 : 0.3971    ndcg@10 : 0.4414
Tue 10 Sep 2024 21:44:29 INFO  Saving current: saved\UniSRec-Sep-10-2024_21-32-33.pth
…
